model.pth (torch, 29925 bytes, 6 tensors)

layer1.weight f4 [8, 593]
0	0x3e4c1af2	0.19932154
1	0x3dd27921	0.1027701
2	0x3dec08d7	0.115251236
3	0x3e098276	0.13428673
4	0xbea239ce	-0.31684726
5	0xbe096148	-0.13416016
6	0x3e2a203a	0.16613856
7	0xbdb60a6c	-0.088887066
8	0xbda9f3ae	-0.08298431
9	0xbcd7b7cc	-0.026332758
10	0xbe2451b2	-0.1604679
11	0x3de8c99e	0.113665804
12	0x3d825578	0.06363958
13	0x3c06a975	0.008219113
14	0x3e625f67	0.22106706
15	0xbd584242	-0.052797563
16	0xbc8f7e0c	-0.017516159
17	0xbd80ac1e	-0.06282829
18	0xbd0b3fd4	-0.033996418
19	0xbe2e5b6c	-0.17027062
20	0x3ddbc07c	0.10730073
21	0xbdc104da	-0.094247535
22	0x3e6056ae	0.21908066
23	0x3d86e32d	0.06586299
24	0xbbc4afdd	-0.00600241
25	0xbcd82d45	-0.026388774
26	0xbc452ceb	-0.012034635
27	0x3d21101f	0.039322015
28	0x3d3afe8d	0.045652915
29	0xbe0884e3	-0.13331942
30	0x3bf6a6e5	0.0075272196
31	0x3d973444	0.07383016
32	0x3e20ec93	0.15715246
33	0x3e0ba410	0.13636804
34	0x3c69bad1	0.014265732
35	0xbda46062	-0.08026196
36	0x3d209dff	0.039213177
37	0xbca34ee9	-0.019935088
38	0x3c7f27f4	0.01557349
39	0xbd5db989	-0.05413202
40	0x3da2e5b0	0.07953966
41	0x3a035184	0.00050094
42	0x3c829b30	0.01594314
43	0xb815d8b2	-3.572618e-05
44	0x3c1a6b1d	0.009424952
45	0x3d79e3c2	0.061008222
46	0xbe255cfe	-0.16148755
47	0xbc17b208	-0.009258755
48	0x3e71c911	0.23611857
49	0x3da0b910	0.07847798
50	0xbe672209	-0.22571577
51	0x3cbe6eaa	0.023246128
52	0xbd5e2eb7	-0.05424377
53	0x3dd7906e	0.10525595
54	0xbe5624f4	-0.20912534
55	0x3dff2acc	0.12459335
56	0x39bd6313	0.00036122705
57	0x3c6ca30a	0.014443168
58	0xbee203a8	-0.44143414
59	0xbc245eb5	-0.010032346
60	0x3db5b63d	0.0887265
61	0x3b54dd1d	0.0032480427
62	0x3cb4db14	0.02207712
63	0x3d206d65	0.039166827
64	0x3cc99293	0.024606025
65	0x3d87248d	0.065987684
66	0x3d85d657	0.06535023
67	0x3cd76bab	0.026296457
68	0xbd0a312f	-0.03373831
69	0x3c3577eb	0.011075954
70	0xbb874922	-0.004128591
71	0x3c247667	0.010037995
72	0xbbdb0231	-0.006683611
73	0x3d0c45dc	0.03424631
74	0x3bf8416a	0.0075761573
75	0x3eb392fd	0.3507308
76	0x3cdea372	0.027177546
77	0xbdb0b79e	-0.08628772
78	0xbdac1315	-0.08402077
79	0xbb114f62	-0.002217256
80	0x3e2cb9b3	0.16867714
81	0xbb6a410f	-0.0035744344
82	0x3d11de45	0.035612363
83	0x3cfc4d49	0.030798571
84	0x3cb0479c	0.021518521
85	0xbbe17ba9	-0.0068811965
86	0x3cf92e2d	0.030417526
87	0xbc10f5fa	-0.008847708
88	0xbc12a780	-0.008951068
89	0xbca204de	-0.019777711
90	0xbcda1b9a	-0.02662449
91	0x3b7dbaef	0.0038716157
92	0xbd09132b	-0.033465546
93	0x3c239c83	0.009986046
94	0x3d808326	0.062750146
95	0xbe0ea7ac	-0.13931149
96	0xbc4b7f6d	-0.012420517
97	0x3bcbf408	0.006224159
98	0x3df2e74c	0.11860523
99	0x3e0b8505	0.13624962
100	0x3c0d1501	0.008610965
101	0xbc57f035	-0.013179828
102	0xbc057d9e	-0.008147625
103	0x3c343a86	0.011000281
104	0x3e069bdf	0.13145398
105	0xbe11e4d4	-0.14247447
106	0x3ca6b30b	0.020349046
107	0xbe0a2ff9	-0.13494863
108	0xbc571872	-0.013128387
109	0xbc2cf3ff	-0.01055622
110	0x3db01f22	0.08599688
111	0x3e40f5e1	0.18843795
112	0xbd008ec1	-0.03138614
113	0x3c7a4954	0.015276272
114	0xbe0980be	-0.13428017
115	0xbd88d46e	-0.06681143
116	0xbc82bd9c	-0.015959553
117	0xbd157df5	-0.036497075
118	0x3a997d88	0.0011710385
119	0x3d78f5a9	0.060781155
120	0x3c623bd3	0.0138082085
121	0x3cdf147c	0.027231447
122	0x3bd33624	0.006445663
123	0x3c00c71b	0.00785997
124	0x3e2651aa	0.1624209
125	0xbc1fd8fb	-0.009756322
126	0xbda1f6e7	-0.07908421
127	0x3ca3bbcb	0.019987008
128	0x3d0f1528	0.034932286
129	0x3da26ddf	0.079311125
130	0x3c3e55df	0.011617153
131	0xbc7a2d09	-0.015269526
132	0xbd0bbd82	-0.034116276
133	0xbcc194cb	-0.02363052
134	0x3c4fa215	0.012672921
135	0xbe90ffed	-0.28320256
136	0xbcc1bd97	-0.023649974
137	0x3d264545	0.040593404
138	0x3c3b26d0	0.011422828
139	0x3cf74dce	0.030188467
140	0x3dcf536f	0.101233356
141	0x3cbe5f83	0.023238903
142	0x3e1e3f78	0.15453899
143	0xbe027860	-0.12741232
144	0x3cef7ae6	0.029233407
145	0x3e08e20e	0.13367483
146	0x3cf62b33	0.030049896
147	0xbde06ec2	-0.109586254
148	0xbe210b6b	-0.15727012
149	0x3d1a2bf7	0.037639584
150	0x3da6dad6	0.081472084
151	0x3ccc181e	0.024913844
152	0x3e17a2df	0.14808224
153	0x3ccbcaad	0.024876917
154	0xbc8c436d	-0.017121995
155	0x3ee0f8db	0.43939862
156	0x3b86fa57	0.0041191983
157	0xbd33c965	-0.043893237
158	0x3d6c0a06	0.057626747
159	0xbd12ba91	-0.035822455
160	0x3d1056c2	0.03523899
161	0x3dc4db06	0.09612088
162	0xbd588217	-0.05285844
163	0x3e98e5c6	0.29862803
164	0x3c4a5135	0.012348463
165	0x3e0c9f9b	0.1373276
166	0x3c8caeb4	0.017173149
167	0x3c54b49a	0.012982512
168	0x3d1532c3	0.036425363
169	0x3d037518	0.03209409
170	0x3e77c848	0.24197495
171	0xbdd0b04a	-0.101898745
172	0x3d1186ec	0.035529062
173	0x3c7c324a	0.015392849
174	0xbc594996	-0.013262173
175	0xba3fb5b2	-0.00073131465
176	0x3cfa7b3e	0.030576345
177	0xbce9dcf4	-0.028547741
178	0x3e00c655	0.12575658
179	0xbc931aae	-0.017957058
180	0xbcd6e75c	-0.026233368
181	0x3d900866	0.07032852
182	0x3d0e3bda	0.034725048
183	0xbc40c0a8	-0.011764683
184	0xbd2f06c1	-0.04273105
185	0x3dca3ac4	0.0987449
186	0x3c149e9c	0.009071019
187	0xbcf8eafc	-0.030385487
188	0x3ce8bf9f	0.028411685
189	0x3a0da086	0.0005402643
190	0x3d098c26	0.03358092
191	0xbe94f722	-0.29094797
192	0x3d2de2dc	0.042452678
193	0xbc8aaced	-0.01692816
194	0xbbbf23d0	-0.0058331266
195	0x3d019260	0.031633735
196	0x3cdf1cc7	0.027235402
197	0xbcc707d6	-0.024295729
198	0x3defff52	0.1171862
199	0x3cb81c7c	0.02247452
200	0xbc8ca133	-0.01716671
201	0xbc383e92	-0.011245387
202	0x3e8c553e	0.27408785
203	0xbc6601e2	-0.014038535
204	0x3a8c5f10	0.0010709483
205	0xbeb6ce24	-0.35704148
206	0xbe001fc3	-0.12512116
207	0x3cd7bf5c	0.026336364
208	0x3cccd66c	0.025004588
209	0x3e0ef96a	0.13962331
210	0x3d91723b	0.07101866
211	0xbdc91b42	-0.09819652
212	0x3d7fb490	0.062428057
213	0x3cddbf5a	0.027068783
214	0x3c998250	0.018738896
215	0xbd14e960	-0.036355376
216	0x3caec4c6	0.021334063
217	0x3cb184a9	0.021669703
218	0x3cee20da	0.0290684
219	0x3da0525e	0.0782821
220	0xbec788f2	-0.38971668
221	0xbcc37572	-0.023859713
222	0xbdc6a9ba	-0.097003415
223	0x3bca17f6	0.006167407
224	0xbcff3d07	-0.03115703
225	0xbcbb04c0	-0.022829413
226	0xbc659761	-0.014013142
227	0xbe13d693	-0.14437322
228	0xbb3baa72	-0.002863553
229	0x3d05b997	0.032647695
230	0xbe29c983	-0.16580777
231	0xbca121a3	-0.01966936
232	0xbd5f2291	-0.054476324
233	0xbcb568c6	-0.022144686
234	0xbcd4ec59	-0.025991606
235	0x3e138f81	0.14410211
236	0x3d76e9f5	0.060281713
237	0xbdebf01c	-0.115204066
238	0xbe84f5b4	-0.25968707
239	0xbd1a3a73	-0.037653398
240	0x3c01e4b7	0.007928065
241	0xbd1a42ed	-0.03766148
242	0xbe2b89fb	-0.16751854
243	0xbced655f	-0.028979002
244	0xbc7c7863	-0.015409562
245	0x3c5a955c	0.013341274
246	0xbcd36da2	-0.025809113
247	0xbc8c59ca	-0.017132659
248	0x3e370a3e	0.17875001
249	0xbe59c5e9	-0.21266903
250	0xbda4aa82	-0.08040334
251	0xbe4a8ea0	-0.1978097
252	0xbc9edfb2	-0.019393776
253	0xbd268dba	-0.040662505
254	0x3d914acd	0.07094345
255	0xbd8a5b27	-0.06755667

layer1.bias f4 [8]
0	0x3e707271	0.23481156
1	0xbd0d6480	-0.034519672
2	0x3eaf313c	0.3421725
3	0x3e2f32e4	0.17109257
4	0x3ec063ac	0.37576044
5	0x3e939abe	0.28828996
6	0x3e779cc3	0.24180894
7	0xbcea9ae0	-0.028638303

layer2.weight f4 [8, 8]
0	0xbe20529a	-0.1565651
1	0xbf370ae7	-0.7150101
2	0x3ec0c4dd	0.37650195
3	0xbf32e3c7	-0.6987881
4	0x3ee92ead	0.45543423
5	0xbe035c4d	-0.12828179
6	0x3f06e12a	0.52687323
7	0x3e7ccefb	0.24688332
8	0xbe868c56	-0.26278943
9	0xbdd48e27	-0.10378676
10	0xbeaf5b52	-0.3424936
11	0xbea726bd	-0.32646742
12	0xbe818353	-0.25295505
13	0xbdb9834f	-0.09058248
14	0x3e771bc8	0.24131691
15	0xbd4e6a36	-0.05039426
16	0x3f2c9a62	0.6742307
17	0xbc1e15f9	-0.009648793
18	0x3efba2dd	0.49147692
19	0x3d118ba9	0.03553358
20	0x3e5f044d	0.21778984
21	0x3f545391	0.8294001
22	0xbcc85827	-0.024456097
23	0xbf074130	-0.52833843
24	0x3ec7665b	0.3894528
25	0xbe82e8f0	-0.25568342
26	0x3e1ce056	0.15319952
27	0x3f8438b6	1.0329807
28	0x3ef740a0	0.48291492
29	0xbd96d7e2	-0.07365395
30	0x3f01e9ac	0.5074718
31	0xbf0f2322	-0.55912983
32	0xbee2b506	-0.44278735
33	0xbe3d2082	-0.18469432
34	0x3d8c7afb	0.06859394
35	0x3e52cc1d	0.20585676
36	0x3eba19cb	0.36347803
37	0x3dc5ef9c	0.096648425
38	0x3d9f9c6b	0.07793506
39	0x3b9fb996	0.0048744185
40	0xbe1f0f24	-0.1553312
41	0x3f610c38	0.8790927
42	0xbe0e3e40	-0.13890934
43	0x3ec9d858	0.3942287
44	0x3ece91d4	0.40345633
45	0x3ec40979	0.38288477
46	0xbe597254	-0.21235019
47	0x3ed427d5	0.4143664
48	0x3e9fefff	0.3123779
49	0xbe7bc969	-0.2458855
50	0xbe79b40b	-0.24385087
51	0x3e96c183	0.29444513
52	0xbea337bc	-0.3187846
53	0xbdd0573b	-0.10172888
54	0xbd8503f7	-0.06494897
55	0x3d43283b	0.04764579
56	0xbeef85fb	-0.46781906
57	0xbe1f2791	-0.15542437
58	0xbd823eb8	-0.06359619
59	0xbeeb02a2	-0.45900446
60	0x3eb5b1d3	0.35487232
61	0x3e474eaa	0.19463602
62	0xbc8aa8e1	-0.01692623
63	0x3f3a8436	0.7285799

layer2.bias f4 [8]
0	0x3ee8a434	0.45437777
1	0x3dd55509	0.1041661
2	0x3e2da2d7	0.1695665
3	0x3f06563e	0.52475345
4	0xbe3be41e	-0.18348739
5	0xbdf6df39	-0.12054295
6	0xbeaa52d7	-0.33266327
7	0x3e9edf7c	0.3102988

layer3.weight f4 [18, 8]
0	0xbeee8432	-0.46585232
1	0xbe8d97be	-0.27654833
2	0x3eb1ee9e	0.34752363
3	0x3ea0d983	0.31415948
4	0xbe342d20	-0.17595339
5	0x3ee61e84	0.44945157
6	0x3e952aca	0.29134208
7	0xbead1dbb	-0.33811745
8	0xbd47f669	-0.04881898
9	0xbdff2325	-0.12457875
10	0x3eb07243	0.34462175
11	0x3c0d6e0c	0.008632194
12	0xbf1cb415	-0.61212283
13	0x3d834d57	0.06411236
14	0xbe03c5c1	-0.12868406
15	0xbe63c26e	-0.22242138
16	0x3db447f5	0.08802787
17	0xbdd06d97	-0.101771526
18	0x3e69b5d1	0.22823264
19	0x3e2e42d8	0.17017686
20	0xbed0de87	-0.40794775
21	0x3e0dcf13	0.13848524
22	0x3e897573	0.2684742
23	0xbf04f0d7	-0.5192999
24	0x3ebd7e40	0.37010384
25	0xbe9d5b48	-0.30733705
26	0x3e3c925b	0.18415205
27	0xbeec83e5	-0.46194378
28	0x3ed17ca7	0.40915415
29	0xbc4677a1	-0.012113483
30	0x3e9498a9	0.2902272
31	0x3f2110ed	0.6291645
32	0x3ef649b9	0.4810312
33	0xba9a30ff	-0.001176387
34	0x3ec898a3	0.39178953
35	0x3e7b126a	0.24518743
36	0x3e59b225	0.21259363
37	0xbf3e906e	-0.7443913
38	0xbdbb6318	-0.0914976
39	0xbe28f2e7	-0.1649891
40	0xbdf66763	-0.12031438
41	0xbeb01d2e	-0.34397262
42	0xbeb3a8e8	-0.35089803
43	0x3eb114a2	0.34586054
44	0x3e2727c9	0.1632377
45	0x3ed6b1df	0.4193258
46	0xbe8e6906	-0.27814502
47	0x3e2e3dc5	0.1701575
48	0xbe912864	-0.28351128
49	0xbea4a07d	-0.32153693
50	0xbbcd4e9a	-0.0062654736
51	0xbe65b19b	-0.22431032
52	0xbf31d1a0	-0.6946049
53	0xbd0abf5b	-0.033873897
54	0xbe26915b	-0.16266386
55	0x3efa41eb	0.48878416
56	0x3e44813c	0.19189924
57	0xbccd38bf	-0.025051473
58	0xbcf33cbd	-0.029692048
59	0x3d606b4a	0.05478982
60	0xbe5edb6c	-0.2176339
61	0x3dfa9d27	0.12237006
62	0xbd93fa8a	-0.07225521
63	0x3eda8c30	0.4268508
64	0xbe7140af	-0.23559831
65	0xbcc0ff9e	-0.023559388
66	0xbeb8de3a	-0.36107045
67	0xbd82495a	-0.06361647
68	0xbf71f3f3	-0.9451286
69	0xbf1dd909	-0.61659294
70	0xbe452209	-0.19251265
71	0xbea30f9f	-0.31847855
72	0xbf1d5145	-0.6145213
73	0xbd9c2f18	-0.0762617
74	0xbe54680c	-0.20742816
75	0xbde3ef4c	-0.11129627
76	0xbee0b405	-0.43887344
77	0x3d8666fa	0.0656261
78	0x3d5eaba2	0.0543629
79	0x3c5c069c	0.01342931
80	0xbed51cd2	-0.4162355
81	0xbdbda838	-0.09260601
82	0x3e40ab9b	0.18815462
83	0xbea8101e	-0.32824796
84	0xbe8f9021	-0.2803965
85	0x3e805b79	0.25069788
86	0xbe5e684b	-0.21719472
87	0xbe925b9e	-0.28585523
88	0xbed8b75c	-0.42327392
89	0xbe319aca	-0.17344204
90	0xbf55cda4	-0.8351691
91	0xbe535098	-0.20636213
92	0xbf638f41	-0.88890463
93	0xbf8dfe88	-1.1093302
94	0x3e59f240	0.21283817
95	0xbec59827	-0.38592646
96	0xbf2d05fc	-0.67587256
97	0xbe634d53	-0.22197466
98	0xbf1d7315	-0.61503726
99	0xbd54bbd2	-0.051936932
100	0xbecb8d56	-0.39756268
101	0xbe2ad0c7	-0.16681205
102	0xbd77cafd	-0.06049632
103	0xbe483044	-0.19549662
104	0xbeef6067	-0.46753237
105	0xbe0b7d73	-0.13622074
106	0xbe71e408	-0.23622143
107	0xbeb5f70d	-0.35540047
108	0xbf028240	-0.50979996
109	0xbf81d235	-1.0142275
110	0xbd926350	-0.071478486
111	0x3b0601c7	0.0020447837
112	0xbf095fb2	-0.53661644
113	0xbe8635f8	-0.2621305
114	0xbeb5953c	-0.3546542
115	0xbf1095cb	-0.56478566
116	0xbf550c1c	-0.832216
117	0xbe8dc387	-0.27688238
118	0x3e31b45e	0.17353961
119	0xbe9d221a	-0.3069008
120	0xbf360442	-0.71100247
121	0xbc94006b	-0.018066606
122	0xbeecb6d6	-0.46233243
123	0xbe69e85e	-0.22842547
124	0xbdfb700d	-0.12277231
125	0xbe7f3b07	-0.24924861
126	0x3e8130e4	0.25232613
127	0xbefba0a2	-0.4914599
128	0xbed54682	-0.41655356
129	0x3df9b681	0.12193013
130	0xbf42718d	-0.75954515
131	0xbe93d3e9	-0.28872612
132	0xbf422b7d	-0.7584761
133	0xbef09ab4	-0.4699303
134	0xbdf0d734	-0.11759797
135	0xbe1d0ec4	-0.15337664
136	0xbf0e0741	-0.5547982
137	0x3e83b546	0.25724238
138	0xbf5c9c74	-0.8617623
139	0xbf3d8d1a	-0.7404343
140	0xbfa481fe	-1.285217
141	0xbe96bbcb	-0.2944015
142	0xbe8b4aea	-0.27205592
143	0xbec6b4ed	-0.3880991

layer3.bias f4 [18]
0	0x3d5aab1c	0.05338584
1	0x3dbfa6ec	0.0935801
2	0x3dc63918	0.096788585
3	0xbe8d06e1	-0.2754431
4	0x3ef8d460	0.4859953
5	0x3db7e13c	0.08978507
6	0x3d70d27b	0.05879448
7	0x3ea2802f	0.3173842
8	0xbf107c73	-0.56439894
9	0xbe8899de	-0.2667989
10	0xbeb99806	-0.36248797
11	0xbee8d84c	-0.4547752
12	0xbd26bf90	-0.040710032
13	0xbdbde373	-0.09271898
14	0xbdbc74db	-0.09201976
15	0xbf14dbb3	-0.58147734
16	0xbe59008a	-0.21191612
17	0xbe701f31	-0.23449399
