model.pth (torch, 29861 bytes, 6 tensors)

layer1.weight f4 [8, 593]
0.080028765 -0.23972337 -0.11449215 -0.17214295 -0.046756394 0.06446796 -0.08185115 -0.037774824
0.044381652 -0.17281663 0.14905763 0.086645 0.042589344 -0.02880406 -0.041559126 -0.029541608
0.033446163 -0.13763976 0.012214139 0.14773107 -0.04961373 0.2295442 -0.18951826 0.035631444
0.01699644 -0.03375963 0.038878456 0.031419106 -0.012910733 0.066943854 -0.01724172 -0.012071562
-0.015440456 -0.1996222 0.009317151 0.04489464 -0.019853726 0.025253093 -0.032351207 -0.13313234
-0.07624114 0.038055193 -0.0025335043 0.02371262 -0.0022650291 -0.12134798 -0.042729624 -0.004138103
-0.1589945 0.012497569 0.1818605 -0.010705126 -0.15547206 0.082392216 0.12536575 -0.031007562
0.025075594 -0.033999138 0.17466703 -0.035762914 0.02759137 -0.010630605 0.03777016 -0.040472772
0.0075389394 -0.062671535 0.16842999 -0.009626684 -0.028728334 0.020579103 -0.08467948 -0.0047652307
0.016825901 0.034228332 0.090723954 0.10300545 -0.08923694 -0.05809903 -0.09024028 0.03333505
-0.21554506 0.024611615 0.12458369 -0.031093132 -0.089961894 0.002148677 -0.03694052 0.039572116
0.0088121435 -0.0011426798 0.002609999 -0.0064837 -0.036182743 0.031350706 -0.052517008 -0.036142815
0.039743852 -0.019333784 0.08564018 -0.023430381 0.01649617 -0.028045401 -0.023828624 -0.037455563
0.086449936 -0.07494367 0.03354084 0.10359399 0.13196458 0.021238927 -0.06173739 -0.0133722965
0.07579213 0.030903682 0.11692268 0.081556976 0.031076306 -0.01587242 -0.024726523 -0.08125122
-0.018424362 -0.2428661 0.030700868 0.013500541 -0.065346 -0.021398623 -0.054500513 0.034176715
0.019112794 0.03335552 -0.028989349 0.00394743 -0.009389992 0.023786446 -0.020686252 0.024195569
-0.0210108 0.01946746 0.006442398 -0.02276424 0.023544367 0.024822481 -0.088789426 0.055751417
-0.029811649 -0.15145893 0.016092613 -0.19035356 -0.037123274 0.18465593 0.038375683 0.115933165
-0.15783979 -0.034002822 0.026968764 0.026628314 -0.15875638 0.09774882 -0.0008252953 0.091371864
-0.022313489 0.10925243 0.22709803 0.1417565 -0.03765381 0.100456506 -0.028298333 0.024909839
0.02738482 0.009312912 0.08049967 -0.2348699 -0.0022513075 0.021874081 -0.033184536 -0.026279388
0.0022879248 -0.02211186 -0.050602272 0.024378553 0.005898741 0.17432451 0.027868537 0.017959895
0.093484506 -0.104665615 0.00045490914 -0.13708298 0.014183241 -0.015621859 0.024026167 -0.017092653
-0.075911105 -0.024231233 0.022078777 -0.023633193 0.095985115 0.016421301 -0.10855491 -0.027465612
0.020156754 0.0031907917 0.07665168 -0.03710978 0.00066153164 0.07153038 0.06867176 0.011188923
-0.02467609 0.04249313 -0.077248976 -0.18045402 0.028474562 0.06294466 -0.09144266 0.06680493
-0.0154457 -0.018794807 0.0009479775 0.039203357 -0.042269044 -0.053949993 -0.010754612 0.019404031
0.014961232 -0.02587078 -0.033508338 0.29202348 -0.033095222 0.05721137 0.19916102 0.03696773
-0.015389932 -0.009011918 0.0123959575 -0.1275155 0.2903999 0.037730668 0.026281811 0.017921174
-0.012646736 0.09569712 -0.08493751 -0.004240837 0.005846136 -0.114837654 0.02977743 0.0028786745
0.010084698 -0.032369982 -0.011581984 0.017828155 0.14387885 0.0035500508 -0.09163082 -0.0318325
00000000: 1fe6 a33d 0b7a 75be dc7a eabd 3e46 30be
00000010: a283 3fbd c707 843d 93a1 a7bd c6b9 1abd
00000020: 89c9 353d d8f6 30be 90a2 183e ef72 b13d
00000030: 2a72 2e3d 7ef6 ebbc e739 2abd 3e01 f2bc
00000040: d8fe 083d 70f1 0cbe d01d 483c d046 173e
00000050: c437 4bbd a20d 6b3e 1311 42be 47f2 113d
00000060: 1e3c 8b3c 8a47 0abd 043f 1f3d 52b1 003d
00000070: 8a87 53bc dc19 893d 823e 8dbc cdc7 45bc
00000080: f7f9 7cbc c369 4cbe f7a6 183c 71e3 373d
00000090: 48a4 a2bc 93df ce3c b382 04bd d853 08be
000000a0: 5124 9cbd c3df 1b3d 2609 26bb f840 c23c
000000b0: e270 14bb 4a85 f8bd 4205 2fbd ed98 87bb
000000c0: 74cf 22be 9bc2 4c3c a439 3a3e 8e64 2fbc
000000d0: 1134 1fbe 40bd a83d e15f 003e 9203 febc
000000e0: 556b cd3c ae42 0bbd eadb 323e 227c 12bd
000000f0: 4c07 e23c fd2b 2ebc e2b4 1a3d c7c6 25bd
00000100: 3509 f73b ef59 80bd e978 2c3e 3db9 1dbc
00000110: af57 ebbc 8295 a83c 6f6c adbd a725 9cbb
00000120: 79d6 893c 0233 0c3d 7bcd b93d 85f4 d23d
00000130: dbc1 b6bd 40f9 6dbd e5cf b8bd 558a 083d
00000140: d8b7 5cbe 4c9e c93c bc25 ff3d 06b7 febc
00000150: f13d b8bd d1d0 0c3b f14e 17bd 5f16 223d
00000160: cf60 103c f9c5 95ba 840c 2b3b 3875 d4bb
00000170: 5b34 14bd 9969 003d 131c 57bd 7d0a 14bd
00000180: 73ca 223d e261 9ebc 1e64 af3d 12f1 bfbc
00000190: fa22 873c 78bf e5bc 3f34 c3bc 016b 19bd
000001a0: aa0c b13d 117c 99bd 1f62 093d 1629 d43d
000001b0: b921 073e 42fd ad3c 58e0 7cbd 7a17 5bbc
000001c0: e738 9b3d b829 fd3c 2875 ef3d 5807 a73d
000001d0: bd93 fe3c e106 82bc 478f cabc 0a67 a6bd
000001e0: b0ee 96bc e4b1 78be 6380 fb3c 6031 5d3c
000001f0: 20d4 85bd 2a4c afbc ee3b 5fbd e2fc 0b3d
00000200: 6f92 9c3c cc9f 083d 127b edbc 7159 813b
00000210: 7bd8 19bc cbdb c23c 3776 a9bc c935 c63c
00000220: d71e acbc 397a 9f3c c01a d33b 127c babc
00000230: 1ee0 c03c 8458 cb3c 3bd7 b5bd 995b 643d
00000240: 8f37 f4bc 0d18 1bbe a8d4 833c 0bec 42be
00000250: 930e 18bd 7216 3d3e d22f 1d3d 5e6e ed3d
00000260: c1a0 21be 8b46 0bbd 99ed dc3c 9f23 da3c
00000270: 0891 22be 8930 c83d a158 58ba 2c21 bb3d
00000280: c7ca b6bc bdbf df3d 638c 683e 9e28 113e
00000290: e23a 1abd 24bc cd3d e8d1 e7bc b80f cc3c
000002a0: 2156 e03c 2f95 183c 03dd a43d bc81 70be
000002b0: ac8a 13bb 4631 b33c 82ec 07bd df47 d7bc
000002c0: 02f1 153b ee23 b5bc 5444 4fbd 88b5 c73c
000002d0: 3a4a c13b 2082 323e 8f4c e43c a120 933c
000002e0: ce74 bf3d ed5a d6bd df80 ee39 7b5f 0cbe
000002f0: d360 683c d3f2 7fbc 86d2 c43c e405 8cbc
00000300: 4877 9bbd 9480 c6bc 8dde b43c 669a c1bc
00000310: d893 c43d f785 863c 0952 debd 90ff e0bc
00000320: c71f a53c 9a1c 513b 8efb 9c3d 6d00 18bd
00000330: a36a 2d3a 857e 923d c8a3 8c3d bf51 373c
00000340: 8325 cabc 470d 2e3d b634 9ebd f0c8 38be
00000350: 7c43 e93c 21e9 803d 4a46 bbbd 06d1 883d
00000360: f60f 7dbc 91f7 99bc b181 783a b393 203d
00000370: 4e22 2dbd abfa 5cbd 1d34 30bc 34f5 9e3c
00000380: f51f 753c f5ee d3bc 0a40 09bd 1a84 953e
00000390: db8e 07bd 7856 6a3d def0 4b3e 796b 173d
000003a0: 0e26 7cbc b9a6 13bc 6a18 4b3c 6c93 02be
000003b0: 4caf 943e 798b 1a3d f44c d73c 6dcf 923c
000003c0: 4134 4fbc dafc c33d b8f3 adbd b8f6 8abb
000003d0: f190 bf3b 0130 ebbd ccef f33c 25a8 3c3b
000003e0: 4a3a 253c 6396 04bd 5dc2 3dbc 5a0c 923c
000003f0: fa54 133e f8a7 683b f0a8 bbbd cc62 02bd

layer1.bias f4 [8]
0.11338608 -0.0527546 0.107240446 0.15993726 -0.121666126 0.26592022 0.5873845 0.12339805
00000000: f636 e83d 3515 58bd e1a0 db3d 98c6 233e
00000010: 172c f9bd b226 883e d55e 163f 1eb8 fc3d

layer2.weight f4 [8, 8]
-0.27689284 0.2870171 0.0887818 -0.2548641 -0.29174855 -0.39202803 0.17593099 0.002044648
0.31686515 -0.3401821 0.1912791 -0.32274517 -0.14849903 0.11363484 -0.37593463 0.18626542
-0.19208556 -0.18157962 -0.29976875 -0.03735273 -0.3532369 -0.23451084 -0.08410661 -0.047049202
-0.14348681 -0.47833398 -0.6754849 -0.35707003 -0.06884613 0.7735199 0.41772446 0.77102524
0.19215769 -0.8156228 -0.45798746 0.77006763 -0.60606855 -0.16816458 0.3794216 -0.059500087
0.33563203 -0.09839244 1.1876173 -0.48832828 -0.32459718 0.041835483 0.45559117 0.36497888
-0.5456897 1.0302789 0.2238367 -0.15557477 -0.651143 0.19184859 0.5254392 0.2806112
0.8644091 -0.16804703 0.1809344 0.46258476 -0.32687634 -0.2492317 0.37271217 -0.60514385
00000000: e6c4 8dbe e8f3 923e 3bd3 b53d 8c7d 82be
00000010: 1160 95be e6b7 c8be 4127 343e 80ff 053b
00000020: 263c a23e 592c aebe abde 433e db3e a5be
00000030: 2110 18be 62b9 e83d 817a c0be 5dbc 3e3e
00000040: 14b2 44be 02f0 39be 4a7b 99be 2dff 18bd
00000050: 78db b4be 9c23 70be 1640 acbd aab6 40bd
00000060: 35ee 12be 31e8 f4be 94ec 2cbf e2d1 b6be
00000070: 33ff 8cbd 6605 463f fbdf d53e e961 453f
00000080: fcc4 443e a8cc 50bf 557d eabe 2723 453f
00000090: 4f27 1bbf 5633 2cbe 8c43 c23e 5db6 73bd
000000a0: f6d7 ab3e fa81 c9bd d803 983f 2a06 fabe
000000b0: 9a31 a6be af5b 2b3d 3f43 e93e 83de ba3e
000000c0: 52b2 0bbf 2ee0 833f 7335 653e fe4e 1fbe
000000d0: 4fb1 26bf f573 443e 2f83 063f 45ac 8f3e
000000e0: ea49 5d3f 8514 2cbe de46 393e e9d7 ec3e
000000f0: 565c a7be 9836 7fbe 21d4 be3e b5ea 1abf

layer2.bias f4 [8]
-0.29875532 -0.11763238 -0.3147481 0.6377987 0.4509173 0.044539798 0.49026614 -0.013796359
00000000: 75f6 98be 3fe9 f0bd aa26 a1be c746 233f
00000010: a2de e63e 5d6f 363d 2a04 fb3e 200a 62bc

layer3.weight f4 [18, 8]
0.29118147 -0.15219165 0.20858298 0.3953657 -0.18046418 0.25139517 0.1505481 -0.99542564
-0.34368503 0.115967646 0.014462354 0.2512477 -0.12707935 -0.09795947 -0.12544568 0.09900951
-0.26433983 -0.28314868 -0.31411865 0.13234767 -0.35947233 -0.2701296 0.4363568 -0.4341332
-0.1295577 0.2564418 0.118394755 -0.07743818 0.41260406 -0.4183241 0.022084266 0.093542084
-0.059097715 0.056633856 0.13800846 -0.049214803 0.45071667 -0.031105777 0.21884246 0.20351513
-0.17000113 -0.15479073 0.22816601 -0.37935984 -0.56384254 0.33795393 0.25805804 0.22442253
-0.3117424 -0.1373816 0.1937381 -0.24754718 0.092499524 -0.20448473 -0.4595288 0.3826607
-0.09371732 -0.29447213 0.30290708 -0.099500515 0.11013732 0.35028124 -0.071061574 0.16395544
-0.3146116 -0.15884356 -0.2328551 -0.67560583 -0.15110722 -0.36981103 -0.07229387 -0.374987
0.021652903 -0.07508756 -0.21680894 -0.47204337 -0.12852263 0.0005846452 -0.0058510937 -0.5714924
-0.1477051 0.16046508 -0.008897916 -0.30898154 -0.42004815 0.04315077 0.10659162 0.017109537
0.20469159 -0.07125855 0.2510312 -0.24933073 -0.62521076 -0.94819754 -0.55964667 -1.3309832
-0.109040916 -0.10201981 0.11056353 -0.6022687 -0.6794627 -0.046665095 -0.13501802 -0.5018816
-0.5051258 0.054532193 -0.08006864 -0.53729045 0.15432566 -0.17090261 -0.57451785 -0.31813487
-0.49677405 0.28630355 -0.2854799 -0.27382186 -0.5497803 -0.4564338 -0.51187253 -0.30374673
-0.018181577 0.22548006 -0.1208775 -0.53881025 -0.6503395 -0.2908868 -0.3859577 0.04115297
0.20110393 -0.1653197 0.025408648 -0.510323 -0.22043112 -0.38502377 -0.35155866 -0.7075589
-0.32145187 0.25576836 0.052577645 -0.5761359 -0.3215959 -0.8497051 -0.46201184 -0.36474153
00000000: bd15 953e 21d8 1bbe c796 553e 5f6d ca3e
00000010: 9acb 38be deb6 803e 4829 1a3e 37d4 7ebf
00000020: 7cf7 afbe 7280 ed3d 82f3 6c3c 8aa3 803e
00000030: 1721 02be f99e c8bd d574 00be 7fc5 ca3d
00000040: 8d57 87be ddf8 90be 29d4 a0be 2686 073e
00000050: c20c b8be 6d4e 8abe 296a df3e b546 debe
00000060: c6aa 04be 574c 833e f378 f23d e997 9ebd
00000070: d740 d33e 942e d6be 10ea b43c fe92 bf3d
00000080: 7210 72bd e7f8 673d 1752 0d3e 7695 49bd
00000090: 56c4 e63e 8bd1 febc 3d18 603e 4566 503e
000000a0: c714 2ebe 7681 1ebe 5aa4 693e 743b c2be
000000b0: fc57 10bf 4c08 ad3e 2f20 843e 05cf 653e
000000c0: b39c 9fbe c3ad 0cbe 4863 463e 027d 7dbe
000000d0: 6470 bd3d 7264 51be 5c47 ebbe 1aec c33e
000000e0: deee bfbd 0dc5 96be a316 9b3e edc6 cbbd
000000f0: ad8f e13d 1058 b33e bb88 91bd efe3 273e
00000100: c614 a1be e3a7 22be 9171 6ebe 81f4 2cbf
00000110: dabb 1abe df57 bdbe cf0e 94bd 4cfe bfbe
00000120: 6e61 b13c 82c7 99bd 2a03 5ebe abaf f1be
00000130: 709b 03be e042 193a 88ba bfbb 534d 12bf
00000140: 0140 17be f550 243e 91c8 11bc d432 9ebe
00000150: 8d10 d7be ddbe 303d b54c da3d 4d29 8c3c
00000160: ac9a 513e 01f0 91bd 2987 803e 8e50 7fbe
00000170: d00d 20bf 13bd 72bf 0145 0fbf a85d aabf
00000180: d850 dfbd c3ef d0bd 226f e23d 482e 1abf
00000190: 44f1 2dbf e623 3fbd 2a42 0abe 507b 00bf
000001a0: ed4f 01bf 265d 5f3d 07fb a3bd de8b 09bf
000001b0: 8c07 1e3e 1801 2fbe 9a13 13bf 93e2 a2be
000001c0: 2b59 febe 6196 923e 6c2a 92be 6132 8cbe
000001d0: 67be 0cbf b1b1 e9be 140a 03bf b184 9bbe
000001e0: 88f1 94bc 3fe4 663e 9f8e f7bd 78ef 09bf
000001f0: a67c 26bf 1def 94be 3f9c c5be 0490 283d
00000200: 30ee 4d3e 9149 29be cc25 d03c 87a4 02bf
00000210: b2b8 61be d621 c5be 7fff b3be 9422 35bf
00000220: 5795 a4be 12f4 823e a85b 573d a47d 13bf
00000230: 38a8 a4be 4686 59bf d18c ecbe 67bf babe

layer3.bias f4 [18]
0.147718 -0.19383414 -0.029087923 -0.0605196 -0.027897695 0.28574216 0.11087524 -0.024004055
-0.30285716 -0.2847335 -0.54013616 -0.5886843 -0.13489114 -0.5600205 -0.48325324 -0.6416899
-0.5276568 -0.5291448
00000000: 6343 173e 757c 46be cc49 eebc 66e3 77bd
00000010: b589 e4bc cc4c 923e 8f12 e33d 27a4 c4bc
00000020: 1810 9bbe 97c8 91be 5d46 0abf 04b4 16bf
00000030: e720 0abe 815d 0fbf f86c f7be ca45 24bf
00000040: 8414 07bf 0976 07bf
