src/model.pth (torch, 31461 bytes, 6 tensors)

layer1.weight f4 [8, 593]
000000 d5 bf ba 3e 78 dd db bf 69 f1 3f be 85 47 63 bf
       0.3647448 -1.7176962 -0.18744434 -0.88781005
000010 ec 43 f4 bd 09 db bf 3e e5 d2 cb 3d 72 95 6b be
       -0.119270176 0.37471798 0.09952334 -0.23006228
000020 4a d5 d0 3d f3 58 5f 3e c9 df 37 3e 28 2e 86 3e
       0.10196932 0.21811275 0.17956461 0.2620709
000030 08 12 a5 3e 24 c5 74 3c 2b c7 03 bf 00 b3 cb 3e
       0.3224032 0.01493958 -0.5147578 0.39785004
000040 78 a7 da 3c 22 2a 75 be 25 43 42 3c ac 53 8a 3d
       0.026691183 -0.23941854 0.011856829 0.067542404
000050 2d 54 1a 3f 71 21 40 bf 77 de 03 3f 10 22 16 be
       0.6028469 -0.7505103 0.5151133 -0.14661431
000060 c8 19 ea bc 98 0e dd 3b ab 9e 94 3d ed 1a 15 3d
       -0.028576747 0.0067461245 0.07256826 0.03640263
000070 07 29 1c be 35 ac a5 3e df 31 b8 bc 60 3c 51 3d
       -0.15250026 0.32357946 -0.022484718 0.05108297
000080 a0 41 90 be 36 0e c7 be 5a bc 98 3c 3d 3d f5 be
       -0.28175068 -0.3887803 0.0186445 -0.47898284
000090 42 d1 23 bc 0a 2a 2c 3d b2 26 6b be 16 d4 a2 3e
       -0.009998621 0.04203228 -0.2296398 0.31802434
0000a0 99 91 1e bc b7 16 27 3d d0 f2 9a bb 0a b2 27 3d
       -0.009678268 0.040793147 -0.0047286525 0.040941276
0000b0 e0 0b 39 3c 7d 73 3d be 00 53 de 3e 22 21 65 3c
       0.011294335 -0.18501087 0.434227 0.01398495
0000c0 27 5a d6 3e d1 5c fd be f6 f9 85 3f 5e dd 38 ba
       0.41865656 -0.49484876 1.0466907 -0.0007052029
0000d0 c7 7b 01 bf 9b c7 ee 3e 30 46 39 3f 97 36 87 be
       -0.50579494 0.46636662 0.7237272 -0.26408836
0000e0 db 89 87 3c 50 85 62 3c 76 35 16 bf 9c cd d8 bc
       0.016545227 0.0138257295 -0.58675325 -0.02646523
0000f0 69 f7 35 bf 6b f8 62 bc d7 2e c0 bc 6a ed 12 bd
       -0.7108064 -0.013853173 -0.023459835 -0.035870947
000100 b1 9b 0a bd a3 74 80 bf de 31 3c 3f 0d 37 de 3c
       -0.033839885 -1.0035595 0.7351359 0.02712586
000110 43 0f 98 3c ab 95 b5 bb 7a 8a 3f bd d9 32 f7 bc
       0.018561965 -0.0055415235 -0.04676292 -0.030175613
000120 00 85 8a 3c 2b 1a f1 bc 43 c1 26 3f 38 da cb 3e
       0.016909122 -0.029431423 0.65138644 0.39814925
000130 d7 8d af be da 75 80 bd 45 00 c6 ba 1b 76 39 bf
       -0.34287903 -0.062724784 -0.0015106281 -0.7244584
000140 e8 58 1d bf e7 91 af bc 90 47 2c c0 f7 0f 05 40
       -0.61463785 -0.021431876 -2.6918678 2.0790994
000150 62 69 46 3f a2 02 fa bb 36 c1 87 ba ec 0b 02 bd
       0.7750455 -0.0076297084 -0.0010357264 -0.03174965
000160 b1 5e 9a bb 2a 38 f5 3c 19 dc f5 bc b6 13 51 3c
       -0.004710995 0.029934008 -0.030012177 0.012761047
000170 cd a6 9a bb e6 ea d4 3c 4d 96 af bf 10 3b c0 bd
       -0.0047195912 0.025990915 -1.3717743 -0.09386265
000180 60 b2 ab 3c d4 31 b9 3c 52 e2 35 3e 62 fd b8 3f
       0.02095908 0.022606768 0.17762116 1.4452326
000190 6c 8c c8 bc e6 49 12 3d c2 88 ea 3a 21 d0 f0 3c
       -0.02448102 0.035715006 0.001789354 0.029396119
0001a0 18 6e 34 3f 38 95 86 40 cd c6 7d bc 38 fd 22 3f
       0.7048049 4.205715 -0.015489292 0.6366763
0001b0 b4 d7 50 be 5b eb 07 3d 17 13 98 3e 0d 32 63 bf
       -0.20394784 0.033183437 0.29702064 -0.88748246
0001c0 84 b5 b3 be b1 79 e2 bc 4f 73 17 3f 4c 75 70 3f
       -0.35099423 -0.027645918 0.5916032 0.9392898
0001d0 83 91 53 bc ec 65 d0 bc 14 15 07 3d 5b 72 0c 3e
       -0.012913111 -0.025439225 0.032979086 0.13715498
0001e0 2e 41 d4 3c e0 a0 c0 bc 12 58 b3 bc d0 31 08 bc
       0.025909986 -0.023514211 -0.021892581 -0.0083126575
0001f0 3f 82 ca be 15 bf 0a bd c8 da f8 be fa 13 53 bc
       -0.39552495 -0.033873636 -0.48604417 -0.012883181
000200 e2 46 9c 3c 0e 9e d1 3e 67 47 15 3d 6d 66 f0 39
       0.019076768 0.409409 0.036445048 0.0004585268
000210 cf a1 5a be d3 b5 08 bd 85 7e 1f 3d 68 7f aa bf
       -0.21350788 -0.033376526 0.038939018 -1.3320131
000220 81 11 c6 bc 5b be cd bc fd dd ab 3c 00 fc db 3e
       -0.024178268 -0.025115183 0.020979876 0.42965698
000230 72 64 bf 3e f5 37 36 3c 7b 26 3b bf f9 db 78 bf
       0.3738132 0.01112174 -0.7310559 -0.9721065
000240 c7 ac de bb 5b 62 5e c0 02 eb 02 bd 30 a8 67 bf
       -0.006795499 -3.4747531 -0.031962402 -0.9049101
000250 2b 5e 09 3f 57 f9 56 40 1a 5e 27 bf fa 36 48 be
       0.53659314 3.3589685 -0.6537796 -0.19552222
000260 0f 1b 10 3e b4 06 30 3c b1 40 1e bc 83 40 93 c0
       0.14072822 0.010743786 -0.009658978 -4.601625
000270 74 47 77 3f 37 46 1d bf 36 98 6c 3e a9 60 95 3e
       0.96593404 -0.61435264 0.23104939 0.29175308
000280 90 48 a9 bc 70 6c 23 3f c9 55 59 3c fc 4d 3d 3f
       -0.020664483 0.6383734 0.013265082 0.7394712
000290 95 48 07 3d c2 91 6e 3f 35 27 9f 3d ed 94 80 3c
       0.033028204 0.9319116 0.0777115 0.015696013
0002a0 3a 4d 82 3c bb 62 1b bd 65 b5 63 bf 81 5a e2 3e
       0.015905965 -0.037935954 -0.8894866 0.44209674
0002b0 f7 f7 63 3c 55 f0 ca 3b 0f 5b f6 3c e0 26 d3 3c
       0.0139141 0.0061932006 0.030072717 0.025775373
0002c0 f5 97 5c bc e5 39 a1 bb 32 b8 fc be 57 9e bb 3c
       -0.013463964 -0.0049202316 -0.4935928 0.02290265
0002d0 ec 98 1b bc fd e7 ac bd 0f 7b af bc 53 b2 01 3f
       -0.009496909 -0.08442686 -0.021420984 0.50662726
0002e0 dd 53 8e be 11 0b 18 bf 58 28 0c 3c f7 73 83 bf
       -0.27798358 -0.59391886 0.008554541 -1.0269765
0002f0 46 b3 11 bd 74 82 06 bd 35 fe de 3b 95 6b 0a c0
       -0.03557136 -0.032839254 0.006805206 -2.1628163
000300 50 50 a0 3d f8 b3 a9 bc 90 08 40 3e 07 af 74 3b
       0.078278184 -0.020715699 0.18753266 0.003733577
000310 6a 02 80 3d 88 ed a3 bc 31 94 49 3f 5d b8 25 3d
       0.062504604 -0.020010725 0.7874175 0.040459026
000320 97 c6 ca 3c fe f4 d1 bc b6 41 9c be b3 5f 53 bb
       0.024752898 -0.025629517 -0.30518883 -0.0032253086
000330 25 11 04 bc 1a ba 45 be 4d 0a 5e 3e 81 85 c4 bc
       -0.008060728 -0.19309273 0.21683617 -0.02398944
000340 11 48 13 bd 2d bc 07 3f 82 fe 68 3f f8 cd 14 3f
       -0.0359574 0.5302151 0.9101335 0.58126783
000350 bc 36 20 bf 1f 5f ab bf f5 b2 6e 40 8d b8 46 3e
       -0.6258352 -1.3388404 3.7296727 0.19406338
000360 63 f9 8e 3b 4f 98 ee 3c 9e 09 f2 ba 3e 82 e8 be
       0.0043632253 0.02912536 -0.0018466001 -0.45411867
000370 37 15 e7 bf 5b d4 48 bf 99 ef ea 3e e2 88 c8 3c
       -1.8053349 -0.7844903 0.45885924 0.024479333
000380 c2 0e 0a 3d ae 3f b3 bb 2f 3f 13 3d aa 31 4e bf
       0.03370548 -0.0054702377 0.03594893 -0.8054453
000390 77 27 09 3d 7c 1d a5 3d 41 50 5b bf 3e 12 f1 bc
       0.033484902 0.08062264 -0.8566933 -0.029427644
0003a0 32 0d b7 be 61 68 aa bb 4e ad ed 3a 69 e1 86 3f
       -0.35752255 -0.005200431 0.0018133314 1.053754
0003b0 a0 48 bd be 09 3e 35 bf 07 47 94 bf ee 97 cb bc
       -0.3696947 -0.70797783 -1.1584176 -0.02485272
0003c0 2a 4a 88 3c c0 71 99 be 0f ea 8c 3d f4 2a 21 bd
       0.016636927 -0.29969597 0.06880581 -0.039347604
0003d0 eb 16 e2 3c 69 db a4 3e f1 fc 80 3c e9 79 35 bc
       0.027598819 0.32198647 0.015745612 -0.011076429
0003e0 5f d8 30 bf b7 3b 00 bc 9c 5d 28 40 ab 70 0d c0
       -0.69080156 -0.007826737 2.6307135 -2.2100017
0003f0 03 24 93 be 82 b4 b1 3c 12 ff 92 3f b5 f8 0e be
       -0.28738412 0.021692518 1.1484091 -0.13962062

layer1.bias f4 [8]
000000 77 c3 b9 3e e5 d6 29 be 56 98 7b 3d a0 48 28 bf
       0.3628194 -0.16585882 0.061424576 -0.65735817
000010 a1 ca 26 be fe a5 d3 3e a9 48 40 3f 47 65 de bc
       -0.16288234 0.4133758 0.7511087 -0.027147902

layer2.weight f4 [8, 8]
000000 96 ec 66 bf 4f c4 06 40 df 16 de 3f 0b 00 ae be
       -0.9020475 2.1057317 1.735073 -0.33984408
000010 9c ae d9 bf 91 d1 18 bf f7 c0 80 3f 53 ac 46 be
       -1.7006412 -0.5969477 1.0058888 -0.19401674
000020 c5 1b d4 bf a2 38 91 3e 2b af b0 3f 1d 29 aa 3f
       -1.6570975 0.2836352 1.3803457 1.3293797
000030 7d 25 54 3f 62 32 14 c0 e4 d4 5c 3f 8f bd 12 3c
       0.828697 -2.3155751 0.86262345 0.008956327
000040 2b 20 a1 3e 8a 81 a9 3f 6e a8 e7 3e 04 52 14 3e
       0.31469855 1.3242657 0.4524569 0.14484411
000050 ae 82 5b c0 2f 5b 4d c0 e6 d6 98 be a0 40 b7 be
       -3.429851 -3.2086904 -0.29851454 -0.35791492
000060 f0 e3 6c 3f 34 54 7d bf a1 ff 5d be 01 d0 86 c0
       0.92535305 -0.9895661 -0.21679546 -4.212891
000070 47 f4 be 3f b7 24 ca 3e be b9 9a 3f b0 50 90 be
       1.4918298 0.39481136 1.2087934 -0.2818656
000080 41 39 58 c0 1f 1f f1 3f 27 57 3d bf 53 97 59 40
       -3.3784945 1.8837622 -0.7396111 3.399861
000090 81 c0 7d 3f b7 ec ef bf 74 09 6d 3e d6 c5 82 3d
       0.9912186 -1.8744115 0.23148137 0.063853905
0000a0 a5 18 e4 3f 04 8a be bf 98 bd d9 3f fc 0b 75 bf
       1.7820021 -1.4885869 1.7010984 -0.9572141
0000b0 bd ee 92 3f 6c f2 76 bf b6 60 84 bf d7 5b c7 bd
       1.1479107 -0.96463656 -1.0342014 -0.09734314
0000c0 fa 58 a7 3f ea 81 ab bf a4 42 bc 3f 96 65 45 bf
       1.3074028 -1.3399022 1.4707837 -0.7710813
0000d0 e8 3e a5 3f da 9f 52 bf 4e a2 29 bf 8f 80 09 3d
       1.2909822 -0.82275164 -0.6626328 0.03356987
0000e0 21 b2 6e 3f 89 8c d3 bf 04 57 18 3f d1 e6 65 bf
       0.93240553 -1.6527263 0.59507775 -0.8980532
0000f0 fe 23 21 be c0 33 4e 3e be 74 3a 3f 26 c6 53 bb
       -0.15736386 0.20136929 0.72834384 -0.003231415

layer2.bias f4 [8]
000000 c5 5b 57 bf 1d 24 ae bf ab a9 95 3e 24 f3 c0 3e
       -0.84124404 -1.3604771 0.2923101 0.37685502
000010 07 76 6c 3c 91 9a 61 3f 77 d7 35 3f 9e a5 43 3f
       0.014432437 0.88126475 0.710319 0.76424587

layer3.weight f4 [18, 8]
000000 ea d4 26 bf fc 85 93 3f 96 5c 72 bf a5 34 ac 3d
       -0.6516863 1.1525264 -0.94672525 0.08408479
000010 23 27 b8 3f fd 75 c8 3f 94 aa 09 c0 24 9e 32 be
       1.4386944 1.5661007 -2.1510363 -0.17443138
000020 dc 92 24 be c7 a6 0d bf 59 46 d7 bf e1 fa 82 3e
       -0.16071647 -0.5533261 -1.6818343 0.2558203
000030 9e 1a d5 3e d1 1d 81 c1 8f 14 aa 40 c5 44 0e 3f
       0.4162187 -16.139559 5.3150096 0.55573684
000040 13 45 d7 bf 45 0e 3a 3e 12 2d 8a 3f ff f6 b0 3e
       -1.6817955 0.18169506 1.0795004 0.34563443
000050 c8 ad c2 3f 85 c1 c0 c0 27 b9 0c bf 81 c7 01 3f
       1.5209284 -6.023623 -0.5497002 0.50695044
000060 3e 67 b4 3f 96 a2 d7 bf 92 06 72 3f 04 93 1c c0
       1.4094007 -1.6846492 0.94541276 -2.4464731
000070 4d 1f e9 c0 9b 31 a5 bf 45 85 5b 3f 97 63 0c 3f
       -7.285071 -1.2905763 0.8575023 0.5483946
000080 dd e6 e8 3e 73 e2 79 bf 35 80 27 c0 d0 6d 69 3f
       0.45488635 -0.9761116 -2.6172001 0.91183186
000090 3f 8a 03 c1 41 49 47 be 82 0f 0f 3f ff 8f 9a be
       -8.2212515 -0.19461538 0.5588304 -0.30187985
0000a0 2e c9 a1 bf 04 83 20 3f 5e 2e 0b 40 67 23 ee 3e
       -1.263952 0.62699914 2.174705 0.46511385
0000b0 08 99 eb bf 60 3b 83 3e ba b0 43 3f 28 5d 6f bf
       -1.8406076 0.25631237 0.7644154 -0.9350152
0000c0 92 e1 20 40 d1 b3 36 c1 45 88 7b 3f 9a 6a 47 c1
       2.5137677 -11.4189005 0.98254806 -12.463526
0000d0 78 6d 8d bf 9b 27 08 be 32 46 b7 be 90 e8 f1 be
       -1.1049032 -0.13296358 -0.35795742 -0.47247744
0000e0 96 41 23 3d e4 0a 84 be 0c 57 97 bf c1 d6 29 3e
       0.03985747 -0.2578956 -1.182344 0.16585828
0000f0 b0 8c 50 3d 24 73 4a 3e b4 19 3d bd e1 57 02 3f
       0.05091542 0.19770485 -0.04616709 0.5091534
000100 47 e1 95 bf b0 88 10 3f 6b e4 54 c2 05 fc c1 3d
       -1.1709374 0.5645857 -53.223064 0.09471897
000110 1d 20 bb 3f 0d 92 1e 40 62 72 25 c1 0c e5 13 3f
       1.4619175 2.4776642 -10.3404255 0.5777137
000120 07 31 35 bf 49 ad e7 3f 22 00 81 c1 04 70 76 bf
       -0.70777935 1.8099757 -16.125065 -0.9626467
000130 c3 62 49 3f bc da a3 3d 7b af b8 bf b7 a7 18 c0
       0.78666323 0.08000705 -1.4428552 -2.3852365
000140 e0 7a 2a bf 04 53 a8 3f 63 cd fd c0 4f 6d a5 be
       -0.6659374 1.3150334 -7.9313216 -0.32309958
000150 d0 f1 98 3f 92 7f 96 3d 49 50 7a bf e1 e8 8f bf
       1.1948795 0.07348551 -0.97778755 -1.1242944
000160 f0 57 3c 3f 67 24 0a c2 c7 86 c0 c1 57 1d 98 bf
       0.7357168 -34.53555 -24.06581 -1.1883954
000170 a0 e2 c5 c1 53 46 f3 c1 0c f9 12 c2 fd 63 70 bd
       -24.735657 -30.409338 -36.74321 -0.058689106
000180 9f 6d c3 c1 85 4a c1 3f 5a 2f b5 c1 39 4f e9 bd
       -24.428526 1.5100867 -22.64812 -0.11392064
000190 62 cc 61 bf 8b fa 09 3f a4 e1 45 be 15 9f e6 c0
       -0.8820249 0.53897923 -0.19324356 -7.206919
0001a0 b5 c5 ed be f9 e3 be c1 df 77 cf 3f 5f af 5b bd
       -0.464399 -23.861315 1.6208457 -0.053634044
0001b0 7f 6b 1a c2 9a cc fa be 6b db 13 c0 e9 47 bc 3f
       -38.604977 -0.48984224 -2.3102672 1.4709445
0001c0 a3 3d 59 3f b1 35 74 bf 01 cf 82 c1 83 ff dc c1
       0.84859675 -0.95394427 -16.351076 -27.624762
0001d0 2c c9 d8 bf 60 6c c4 3e 8c 7c 67 bf 9e 30 58 bf
       -1.6936393 0.38363934 -0.9042442 -0.84449184
0001e0 38 98 bd be 5a 74 a5 c1 a3 c1 a9 c1 fa 5a d3 bf
       -0.37030196 -20.681812 -21.21955 -1.6512139
0001f0 d0 3d 00 40 63 22 b3 3f 50 45 94 3f 31 06 f8 c1
       2.0037727 1.3994869 1.1583652 -31.003023
000200 6f d7 15 c1 fa 1c b8 c0 21 c4 c8 3f 4a a4 72 3e
       -9.365096 -5.753537 1.5684854 0.23695484
000210 5b b2 07 c2 9b c0 96 3d ea a0 64 3f 77 9e 76 bf
       -33.924175 0.07360955 0.89308035 -0.9633555
000220 94 6b 4f 40 16 ff 34 c1 19 3e 89 c1 3a 43 13 c2
       3.240941 -11.312277 -17.155321 -36.81565
000230 7b e2 bf c1 ea 5e 39 c1 71 78 1c bf 43 7f dd 3e
       -23.985586 -11.585672 -0.6112128 0.43261155

layer3.bias f4 [18]
000000 fa b0 ef 3e 69 8b 12 bd 8c 62 b1 3f e8 e6 d5 3d
       0.4681471 -0.035777483 1.3858199 0.104444325
000010 ef b0 22 bf b1 84 06 bf 72 c5 a4 3f 84 8d 8f bf
       -0.6355123 -0.5254622 1.2872756 -1.1215062
000020 35 b4 06 c0 27 82 0e 40 59 19 18 3f 72 c4 bc bf
       -2.104749 2.2266939 0.5941368 -1.474745
000030 01 5a 14 40 6a d7 c3 c0 45 94 a2 3f 51 b3 9a c0
       2.3179934 -6.1200457 1.2701498 -4.834389
000040 54 36 07 c0 66 11 83 c0
       -2.112691 -4.095874
